…
256, 256, 64]}, 'use_sde': False}", 'observation_space': 'Box([-inf -inf -inf -inf -inf -inf -inf -inf -inf], [inf inf inf inf inf inf inf inf inf], (9,), float32)', 'action_space': 'Box([-1. -1. -1. -1. -1.], [1. 1. 1. 1. 1.], (5,), float32)', 'n_envs': 6, 'num_timesteps': 0, '_total_timesteps': 10000000, '_num_timesteps_at_start': 0, 'eval_env': 'None', 'action_noise': 'None', 'start_time': 1677765542522863946, 'policy': 'SACPolicy(\n  (actor): Actor(\n    (features_extractor): FlattenExtractor(\n      (flatten): Flatten(start_dim=1, end_dim=-1)\n    )\n    (latent_pi): Sequential(\n      (0): Linear(in_features=9, out_features=32, bias=True)\n      (1): ReLU()\n      (2): Linear(in_features=32, out_features=256, bias=True)\n      (3): ReLU()\n      (4): Linear(in_features=256, out_features=256, bias=True)\n      (5): ReLU()\n      (6): Linear(in_features=256, out_features=64, bias=True)\n      (7): ReLU()\n    )\n    (mu): Linear(in_features=64, out_features=5, bias=True)\n    (log_std): Linear(in_features=64, out_features=5, bias=True)\n  )\n  (critic): ContinuousCritic(\n    (features_extractor): FlattenExtractor(\n      (flatten): Flatten(start_dim=1, end_dim=-1)\n    )\n    (qf0): Sequential(\n      (0): Linear(in_features=14, out_features=32, bias=True)\n      (1): ReLU()\n      (2): Linear(in_features=32, out_features=256, bias=True)\n      (3): ReLU()\n      (4): Linear(in_features=256, out_features=256, bias=True)\n      (5): ReLU()\n      (6): Linear(in_features=256, out_features=64, bias=True)\n      (7): ReLU()\n      (8): Linear(in_features=64, out_features=1, bias=True)\n    )\n    (qf1): Sequential(\n      (0): Linear(in_features=14, out_features=32, bias=True)\n      (1): ReLU()\n      (2): Linear(in_features=32, out_features=256, bias=True)\n      (3): ReLU()\n      (4): Linear(in_features=256, out_features=256, bias=True)\n      (5): ReLU()\n      (6): Linear(in_features=256, out_features=64, bias=True)\n      (7): ReLU()\n      (8): Linear(in_features=64, out_features=1, bias=True)\n    )\n  )\n  (critic_target): ContinuousCritic(\n    (features_extractor): FlattenExtractor(\n      (flatten): Flatten(start_dim=1, end_dim=-1)\n    )\n    (qf0): Sequential(\n      (0): Linear(in_features=14, out_features=32, bias=True)\n      (1): ReLU()\n      (2): Linear(in_features=32, out_features=256, bias=True)\n      (3): ReLU()\n      (4): Linear(in_features=256, out_features=256, bias=True)\n      (5): ReLU()\n      (6): Linear(in_features=256, out_features=64, bias=True)\n      (7): ReLU()\n      (8): Linear(in_features=64, out_features=1, bias=True)\n    )\n    (qf1): Sequential(\n      (0): Linear(in_features=14, out_features=32, bias=True)\n      (1): ReLU()\n      (2): Linear(in_features=32, out_features=256, bias=True)\n      (3): ReLU()\n      (4): Linear(in_features=256, out_features=256, bias=True)\n      (5): ReLU()\n      (6): Linear(in_features=256, out_features=64, bias=True)\n      (7): ReLU()\n      (8): Linear(in_features=64, out_features=1, bias=True)\n    )\n  )\n)', 'learning_rate': 0.0003, 'tensorboard_log': '/home/daniel/DARM/darm_mujoco/darm_training/results/darm_sf_hand/test1_SF_SB3_SAC_4', 'lr_schedule': '<function constant_fn.<locals>.func at 0x7fee3030a700>', '_last_obs': '[[ 1.3657334  -3.8601196  16.508793    1.7590306  -2.8104239  17.326101\n   0.          0.          0.        ]\n [ 1.4940
…
ogger': '<stable_baselines3.common.logger.Logger object at 0x7fede6ed1220>', '_custom_logger': 'False', 'buffer_size': 1000000, 'batch_size': 256, 'tau': 0.005, 'gamma': 0.99, 'gradient_steps': 6, 'optimize_memory_usage': 'False', 'replay_buffer_class': "<class 'stable_baselines3.common.buffers.ReplayBuffer'>", 'replay_buffer_kwargs': '{}', '_episode_storage': 'None', 'train_freq': "TrainFreq(frequency=1, unit=<TrainFrequencyUnit.STEP: 'step'>)", 'actor': 'Actor(\n  (features_extractor): FlattenExtractor(\n    (flatten): Flatten(start_dim=1, end_dim=-1)\n  )\n  (latent_pi): Sequential(\n    (0): Linear(in_features=9, out_features=32, bias=True)\n    (1): ReLU()\n    (2): Linear(in_features=32, out_features=256, bias=True)\n    (3): ReLU()\n    (4): Linear(in_features=256, out_features=256, bias=True)\n    (5): ReLU()\n    (6): Linear(in_features=256, out_features=64, bias=True)\n    (7): ReLU()\n  )\n  (mu): Linear(in_features=64, out_features=5, bias=True)\n  (log_std): Linear(in_features=64, out_features=5, bias=True)\n)', 'replay_buffer': '<stable_baselines3.common.buffers.ReplayBuffer object at 0x7fede505c2b0>', 'use_sde_at_warmup': 'False', 'target_entropy': '-5.0', 'log_ent_coef': 'tensor([0.], requires_grad=True)', 'ent_coef': 'auto', 'target_update_interval': 1, 'ent_coef_optimizer': 'Adam (\nParameter Group 0\n    amsgrad: False\n    betas: (0.9, 0.999)\n    capturable: False\n    differentiable: False\n    eps: 1e-08\n    foreach: None\n    fused: False\n    lr: 0.0003\n    maximize: False\n    weight_decay: 0\n)', 'critic': 'ContinuousCritic(\n  (features_extractor): FlattenExtractor(\n    (flatten): Flatten(start_dim=1, end_dim=-1)\n  )\n  (qf0): Sequential(\n    (0): Linear(in_features=14, out_features=32, bias=True)\n    (1): ReLU()\n    (2): Linear(in_features=32, out_features=256, bias=True)\n    (3): ReLU()\n    (4): Linear(in_features=256, out_features=256, bias=True)\n    (5): ReLU()\n    (6): Linear(in_features=256, out_features=64, bias=True)\n    (7): ReLU()\n    (8): Linear(in_features=64, out_features=1, bias=True)\n  )\n  (qf1): Sequential(\n    (0): Linear(in_features=14, out_features=32, bias=True)\n    (1): ReLU()\n    (2): Linear(in_features=32, out_features=256, bias=True)\n    (3): ReLU()\n    (4): Linear(in_features=256, out_features=256, bias=True)\n    (5): ReLU()\n    (6): Linear(in_features=256, out_features=64, bias=True)\n    (7): ReLU()\n    (8): Linear(in_features=64, out_features=1, bias=True)\n  )\n)', 'critic_target': 'ContinuousCritic(\n  (features_extractor): FlattenExtractor(\n    (flatten): Flatten(start_dim=1, end_dim=-1)\n  )\n  (qf0): Sequential(\n    (0): Linear(in_features=14, out_features=32, bias=True)\n    (1): ReLU()\n    (2): Linear(in_features=32, out_features=256, bias=True)\n    (3): ReLU()\n    (4): Linear(in_features=256, out_features=256, bias=True)\n    (5): ReLU()\n    (6): Linear(in_features=256, out_features=64, bias=True)\n    (7): ReLU()\n    (8): Linear(in_features=64, out_features=1, bias=True)\n  )\n  (qf1): Sequential(\n    (0): Linear(in_features=14, out_features=32, bias=True)\n    (1): ReLU()\n    (2): Linear(in_features=32, out_features=256, bias=True)\n    (3): ReLU()\n    (4): Linear(in_features=256, out_features=256, bias=True)\n    (5): ReLU()\n    (6): Linear(in_features=256, out_features=64, bias=True)\n    (7): ReLU()\n    (8): Linear(in_features=64, out_features=1, bias=True)\n  )\n)', 'batch_norm_stats': '[]', 'batch_norm_stats_target': '[]'}
2023-03-02 14:59:23,467 INFO    MainThread:11524 [sb3.py:save_model():149] Saving model checkpoint to /home/daniel/DARM/darm_mujoco/darm_training/results/darm_sf_hand/test1_SF_SB3_SAC_4/models/model.zip
2023-03-02 14:59:46,259 INFO    MainThread:11524 [sb3.py:save_model():149] Saving model checkpoint to /home/daniel/DARM/darm_mujoco/darm_training/results/darm_sf_hand/test1_SF_SB3_SAC_4/models/model.zip
…
