…
inf -inf -inf -inf -inf -inf], [inf inf inf inf inf inf inf inf inf inf inf inf inf inf inf inf inf inf\n inf inf inf inf inf inf inf inf inf inf], (28,), float32)', 'action_space': 'Box([-1. -1. -1. -1. -1.], [1. 1. 1. 1. 1.], (5,), float32)', 'n_envs': 6, 'num_timesteps': 0, '_total_timesteps': 10000000, '_num_timesteps_at_start': 0, 'eval_env': 'None', 'action_noise': 'None', 'start_time': 1680617799569652726, 'policy': 'SACPolicy(\n  (actor): Actor(\n    (features_extractor): FlattenExtractor(\n      (flatten): Flatten(start_dim=1, end_dim=-1)\n    )\n    (latent_pi): Sequential(\n      (0): Linear(in_features=28, out_features=128, bias=True)\n      (1): ReLU()\n      (2): Linear(in_features=128, out_features=128, bias=True)\n      (3): ReLU()\n      (4): Linear(in_features=128, out_features=128, bias=True)\n      (5): ReLU()\n    )\n    (mu): Linear(in_features=128, out_features=5, bias=True)\n    (log_std): Linear(in_features=128, out_features=5, bias=True)\n  )\n  (critic): ContinuousCritic(\n    (features_extractor): FlattenExtractor(\n      (flatten): Flatten(start_dim=1, end_dim=-1)\n    )\n    (qf0): Sequential(\n      (0): Linear(in_features=33, out_features=128, bias=True)\n      (1): ReLU()\n      (2): Linear(in_features=128, out_features=128, bias=True)\n      (3): ReLU()\n      (4): Linear(in_features=128, out_features=128, bias=True)\n      (5): ReLU()\n      (6): Linear(in_features=128, out_features=1, bias=True)\n    )\n    (qf1): Sequential(\n      (0): Linear(in_features=33, out_features=128, bias=True)\n      (1): ReLU()\n      (2): Linear(in_features=128, out_features=128, bias=True)\n      (3): ReLU()\n      (4): Linear(in_features=128, out_features=128, bias=True)\n      (5): ReLU()\n      (6): Linear(in_features=128, out_features=1, bias=True)\n    )\n  )\n  (critic_target): ContinuousCritic(\n    (features_extractor): FlattenExtractor(\n      (flatten): Flatten(start_dim=1, end_dim=-1)\n    )\n    (qf0): Sequential(\n      (0): Linear(in_features=33, out_features=128, bias=True)\n      (1): ReLU()\n      (2): Linear(in_features=128, out_features=128, bias=True)\n      (3): ReLU()\n      (4): Linear(in_features=128, out_features=128, bias=True)\n      (5): ReLU()\n      (6): Linear(in_features=128, out_features=1, bias=True)\n    )\n    (qf1): Sequential(\n      (0): Linear(in_features=33, out_features=128, bias=True)\n      (1): ReLU()\n      (2): Linear(in_features=128, out_features=128, bias=True)\n      (3): ReLU()\n      (4): Linear(in_features=128, out_features=128, bias=True)\n      (5): ReLU()\n      (6): Linear(in_features=128, out_features=1, bias=True)\n    )\n  )\n)', 'learning_rate': 0.0003, 'tensorboard_log': '/home/daniel/DARM/darm_mujoco/darm_training/results/dii/SB3_SAC_dii_torque', 'lr_schedule': '<function constant_fn.<locals>.func at 0x7fe672121d30>', '_last_obs': '[[ 1.80463994e+00 -5.53337336e+00  9.13729191e+00 -7.49114975e-02\n   9.93370473e-01 -8.71966332e-02 -2.85489921e-04  2.93000007e+
…
ogger': '<stable_baselines3.common.logger.Logger object at 0x7fe670db4460>', '_custom_logger': 'False', 'buffer_size': 1000000, 'batch_size': 256, 'tau': 0.005, 'gamma': 0.99, 'gradient_steps': 6, 'optimize_memory_usage': 'False', 'replay_buffer_class': "<class 'stable_baselines3.common.buffers.ReplayBuffer'>", 'replay_buffer_kwargs': '{}', '_episode_storage': 'None', 'train_freq': "TrainFreq(frequency=1, unit=<TrainFrequencyUnit.STEP: 'step'>)", 'actor': 'Actor(\n  (features_extractor): FlattenExtractor(\n    (flatten): Flatten(start_dim=1, end_dim=-1)\n  )\n  (latent_pi): Sequential(\n    (0): Linear(in_features=28, out_features=128, bias=True)\n    (1): ReLU()\n    (2): Linear(in_features=128, out_features=128, bias=True)\n    (3): ReLU()\n    (4): Linear(in_features=128, out_features=128, bias=True)\n    (5): ReLU()\n  )\n  (mu): Linear(in_features=128, out_features=5, bias=True)\n  (log_std): Linear(in_features=128, out_features=5, bias=True)\n)', 'replay_buffer': '<stable_baselines3.common.buffers.ReplayBuffer object at 0x7fe6b0b77fd0>', 'use_sde_at_warmup': 'False', 'target_entropy': '-5.0', 'log_ent_coef': 'tensor([0.], requires_grad=True)', 'ent_coef': 'auto', 'target_update_interval': 1, 'ent_coef_optimizer': 'Adam (\nParameter Group 0\n    amsgrad: False\n    betas: (0.9, 0.999)\n    capturable: False\n    differentiable: False\n    eps: 1e-08\n    foreach: None\n    fused: False\n    lr: 0.0003\n    maximize: False\n    weight_decay: 0\n)', 'critic': 'ContinuousCritic(\n  (features_extractor): FlattenExtractor(\n    (flatten): Flatten(start_dim=1, end_dim=-1)\n  )\n  (qf0): Sequential(\n    (0): Linear(in_features=33, out_features=128, bias=True)\n    (1): ReLU()\n    (2): Linear(in_features=128, out_features=128, bias=True)\n    (3): ReLU()\n    (4): Linear(in_features=128, out_features=128, bias=True)\n    (5): ReLU()\n    (6): Linear(in_features=128, out_features=1, bias=True)\n  )\n  (qf1): Sequential(\n    (0): Linear(in_features=33, out_features=128, bias=True)\n    (1): ReLU()\n    (2): Linear(in_features=128, out_features=128, bias=True)\n    (3): ReLU()\n    (4): Linear(in_features=128, out_features=128, bias=True)\n    (5): ReLU()\n    (6): Linear(in_features=128, out_features=1, bias=True)\n  )\n)', 'critic_target': 'ContinuousCritic(\n  (features_extractor): FlattenExtractor(\n    (flatten): Flatten(start_dim=1, end_dim=-1)\n  )\n  (qf0): Sequential(\n    (0): Linear(in_features=33, out_features=128, bias=True)\n    (1): ReLU()\n    (2): Linear(in_features=128, out_features=128, bias=True)\n    (3): ReLU()\n    (4): Linear(in_features=128, out_features=128, bias=True)\n    (5): ReLU()\n    (6): Linear(in_features=128, out_features=1, bias=True)\n  )\n  (qf1): Sequential(\n    (0): Linear(in_features=33, out_features=128, bias=True)\n    (1): ReLU()\n    (2): Linear(in_features=128, out_features=128, bias=True)\n    (3): ReLU()\n    (4): Linear(in_features=128, out_features=128, bias=True)\n    (5): ReLU()\n    (6): Linear(in_features=128, out_features=1, bias=True)\n  )\n)', 'batch_norm_stats': '[]', 'batch_norm_stats_target': '[]'}
2023-04-04 15:17:05,416 INFO    MainThread:28113 [sb3.py:save_model():149] Saving model checkpoint to /home/daniel/DARM/darm_mujoco/darm_training/results/dii/SB3_SAC_dii_torque/models/model.zip
2023-04-04 15:17:32,748 INFO    MainThread:28113 [sb3.py:save_model():149] Saving model checkpoint to /home/daniel/DARM/darm_mujoco/darm_training/results/dii/SB3_SAC_dii_torque/models/model.zip
…
