…
: 'Box([-1. -1. -1. -1. -1. -1. -1. -1. -1. -1. -1. -1. -1. -1. -1. -1. -1. -1.\n -1. -1. -1. -1. -1. -1. -1. -1. -1. -1. -1. -1.], [1. 1. 1. 1. 1. 1. 1. 1. 1. 1. 1. 1. 1. 1. 1. 1. 1. 1. 1. 1. 1. 1. 1. 1.\n 1. 1. 1. 1. 1. 1.], (30,), float32)', 'n_envs': 6, 'num_timesteps': 0, '_total_timesteps': 10000000, '_num_timesteps_at_start': 0, 'eval_env': 'None', 'action_noise': 'None', 'start_time': 1677765860929914615, 'policy': 'SACPolicy(\n  (actor): Actor(\n    (features_extractor): FlattenExtractor(\n      (flatten): Flatten(start_dim=1, end_dim=-1)\n    )\n    (latent_pi): Sequential(\n      (0): Linear(in_features=45, out_features=128, bias=True)\n      (1): ReLU()\n      (2): Linear(in_features=128, out_features=256, bias=True)\n      (3): ReLU()\n      (4): Linear(in_features=256, out_features=256, bias=True)\n      (5): ReLU()\n      (6): Linear(in_features=256, out_features=128, bias=True)\n      (7): ReLU()\n    )\n    (mu): Linear(in_features=128, out_features=30, bias=True)\n    (log_std): Linear(in_features=128, out_features=30, bias=True)\n  )\n  (critic): ContinuousCritic(\n    (features_extractor): FlattenExtractor(\n      (flatten): Flatten(start_dim=1, end_dim=-1)\n    )\n    (qf0): Sequential(\n      (0): Linear(in_features=75, out_features=128, bias=True)\n      (1): ReLU()\n      (2): Linear(in_features=128, out_features=256, bias=True)\n      (3): ReLU()\n      (4): Linear(in_features=256, out_features=256, bias=True)\n      (5): ReLU()\n      (6): Linear(in_features=256, out_features=128, bias=True)\n      (7): ReLU()\n      (8): Linear(in_features=128, out_features=1, bias=True)\n    )\n    (qf1): Sequential(\n      (0): Linear(in_features=75, out_features=128, bias=True)\n      (1): ReLU()\n      (2): Linear(in_features=128, out_features=256, bias=True)\n      (3): ReLU()\n      (4): Linear(in_features=256, out_features=256, bias=True)\n      (5): ReLU()\n      (6): Linear(in_features=256, out_features=128, bias=True)\n      (7): ReLU()\n      (8): Linear(in_features=128, out_features=1, bias=True)\n    )\n  )\n  (critic_target): ContinuousCritic(\n    (features_extractor): FlattenExtractor(\n      (flatten): Flatten(start_dim=1, end_dim=-1)\n    )\n    (qf0): Sequential(\n      (0): Linear(in_features=75, out_features=128, bias=True)\n      (1): ReLU()\n      (2): Linear(in_features=128, out_features=256, bias=True)\n      (3): ReLU()\n      (4): Linear(in_features=256, out_features=256, bias=True)\n      (5): ReLU()\n      (6): Linear(in_features=256, out_features=128, bias=True)\n      (7): ReLU()\n      (8): Linear(in_features=128, out_features=1, bias=True)\n    )\n    (qf1): Sequential(\n      (0): Linear(in_features=75, out_features=128, bias=True)\n      (1): ReLU()\n      (2): Linear(in_features=128, out_features=256, bias=True)\n      (3): ReLU()\n      (4): Linear(in_features=256, out_features=256, bias=True)\n      (5): ReLU()\n      (6): Linear(in_features=256, out_features=128, bias=True)\n      (7): ReLU()\n      (8): Linear(in_features=128, out_features=1, bias=True)\n    )\n  )\n)', 'learning_rate': 0.0003, 'tensorboard_log': '/home/daniel/DARM/darm_mujoco/darm_training/results/darm_mf_hand/test1_MF_SB3_SAC', 'lr_schedule': '<function constant_fn.<locals>.func at 0x7f21863c50d0>', '_last_obs': '[[ 6.06554794e+00 -1.68613279e+00  1.22869873e+01  1.13312232e+00\n  -5.09413910e+00  1.34452877e+01 -2.17337417e-03  5.555
…
ogger': '<stable_baselines3.common.logger.Logger object at 0x7f21d0765970>', '_custom_logger': 'False', 'buffer_size': 1000000, 'batch_size': 256, 'tau': 0.005, 'gamma': 0.99, 'gradient_steps': 6, 'optimize_memory_usage': 'False', 'replay_buffer_class': "<class 'stable_baselines3.common.buffers.ReplayBuffer'>", 'replay_buffer_kwargs': '{}', '_episode_storage': 'None', 'train_freq': "TrainFreq(frequency=1, unit=<TrainFrequencyUnit.STEP: 'step'>)", 'actor': 'Actor(\n  (features_extractor): FlattenExtractor(\n    (flatten): Flatten(start_dim=1, end_dim=-1)\n  )\n  (latent_pi): Sequential(\n    (0): Linear(in_features=45, out_features=128, bias=True)\n    (1): ReLU()\n    (2): Linear(in_features=128, out_features=256, bias=True)\n    (3): ReLU()\n    (4): Linear(in_features=256, out_features=256, bias=True)\n    (5): ReLU()\n    (6): Linear(in_features=256, out_features=128, bias=True)\n    (7): ReLU()\n  )\n  (mu): Linear(in_features=128, out_features=30, bias=True)\n  (log_std): Linear(in_features=128, out_features=30, bias=True)\n)', 'replay_buffer': '<stable_baselines3.common.buffers.ReplayBuffer object at 0x7f21863c1e50>', 'use_sde_at_warmup': 'False', 'target_entropy': '-30.0', 'log_ent_coef': 'tensor([0.], requires_grad=True)', 'ent_coef': 'auto', 'target_update_interval': 1, 'ent_coef_optimizer': 'Adam (\nParameter Group 0\n    amsgrad: False\n    betas: (0.9, 0.999)\n    capturable: False\n    differentiable: False\n    eps: 1e-08\n    foreach: None\n    fused: False\n    lr: 0.0003\n    maximize: False\n    weight_decay: 0\n)', 'critic': 'ContinuousCritic(\n  (features_extractor): FlattenExtractor(\n    (flatten): Flatten(start_dim=1, end_dim=-1)\n  )\n  (qf0): Sequential(\n    (0): Linear(in_features=75, out_features=128, bias=True)\n    (1): ReLU()\n    (2): Linear(in_features=128, out_features=256, bias=True)\n    (3): ReLU()\n    (4): Linear(in_features=256, out_features=256, bias=True)\n    (5): ReLU()\n    (6): Linear(in_features=256, out_features=128, bias=True)\n    (7): ReLU()\n    (8): Linear(in_features=128, out_features=1, bias=True)\n  )\n  (qf1): Sequential(\n    (0): Linear(in_features=75, out_features=128, bias=True)\n    (1): ReLU()\n    (2): Linear(in_features=128, out_features=256, bias=True)\n    (3): ReLU()\n    (4): Linear(in_features=256, out_features=256, bias=True)\n    (5): ReLU()\n    (6): Linear(in_features=256, out_features=128, bias=True)\n    (7): ReLU()\n    (8): Linear(in_features=128, out_features=1, bias=True)\n  )\n)', 'critic_target': 'ContinuousCritic(\n  (features_extractor): FlattenExtractor(\n    (flatten): Flatten(start_dim=1, end_dim=-1)\n  )\n  (qf0): Sequential(\n    (0): Linear(in_features=75, out_features=128, bias=True)\n    (1): ReLU()\n    (2): Linear(in_features=128, out_features=256, bias=True)\n    (3): ReLU()\n    (4): Linear(in_features=256, out_features=256, bias=True)\n    (5): ReLU()\n    (6): Linear(in_features=256, out_features=128, bias=True)\n    (7): ReLU()\n    (8): Linear(in_features=128, out_features=1, bias=True)\n  )\n  (qf1): Sequential(\n    (0): Linear(in_features=75, out_features=128, bias=True)\n    (1): ReLU()\n    (2): Linear(in_features=128, out_features=256, bias=True)\n    (3): ReLU()\n    (4): Linear(in_features=256, out_features=256, bias=True)\n    (5): ReLU()\n    (6): Linear(in_features=256, out_features=128, bias=True)\n    (7): ReLU()\n    (8): Linear(in_features=128, out_features=1, bias=True)\n  )\n)', 'batch_norm_stats': '[]', 'batch_norm_stats_target': '[]'}
2023-03-02 15:07:27,713 INFO    MainThread:11844 [jupyter.py:_save_ipynb():390] looking for notebook: DARM/darm_mujoco/darm_training/sb3_sac_darm_mf_hand.ipynb
2023-03-02 15:07:27,713 INFO    MainThread:11844 [wandb_init.py:_pause_backend():403] pausing backend
2023-03-02 15:07:31,577 INFO    MainThread:11844 [wandb_init.py:_resume_backend():408] resuming backend
…
