…
      4: 3.8.12
      5: 0.13.10
      8:
      - 1
      - 5
action_noise:
  desc: null
  value: None
action_space:
  desc: null
  value: "Box([-1. -1. -1. -1. -1. -1. -1. -1. -1. -1. -1. -1. -1. -1. -1. -1. -1.\
    \ -1.\n -1. -1. -1. -1. -1. -1. -1. -1. -1. -1. -1. -1. -1. -1. -1. -1.], [1.\
    \ 1. 1. 1. 1. 1. 1. 1. 1. 1. 1. 1. 1. 1. 1. 1. 1. 1. 1. 1. 1. 1. 1. 1.\n 1. 1.\
    \ 1. 1. 1. 1. 1. 1. 1. 1.], (34,), float32)"
actor:
  desc: null
  value: "Actor(\n  (features_extractor): FlattenExtractor(\n    (flatten): Flatten(start_dim=1,\
    \ end_dim=-1)\n  )\n  (latent_pi): Sequential(\n    (0): Linear(in_features=45,\
    \ out_features=128, bias=True)\n    (1): ReLU()\n    (2): Linear(in_features=128,\
    \ out_features=256, bias=True)\n    (3): ReLU()\n    (4): Linear(in_features=256,\
    \ out_features=256, bias=True)\n    (5): ReLU()\n    (6): Linear(in_features=256,\
    \ out_features=128, bias=True)\n    (7): ReLU()\n  )\n  (mu): Linear(in_features=128,\
    \ out_features=34, bias=True)\n  (log_std): Linear(in_features=128, out_features=34,\
    \ bias=True)\n)"
algo:
  desc: null
  value: SAC
batch_norm_stats:
  desc: null
  value: '[]'
batch_norm_stats_target:
  desc: null
  value: '[]'
batch_size:
  desc: null
  value: 256
buffer_size:
  desc: null
  value: 1000000
critic:
  desc: null
  value: "ContinuousCritic(\n  (features_extractor): FlattenExtractor(\n    (flatten):\
    \ Flatten(start_dim=1, end_dim=-1)\n  )\n  (qf0): Sequential(\n    (0): Linear(in_features=79,\
    \ out_features=128, bias=True)\n    (1): ReLU()\n    (2): Linear(in_features=128,\
    \ out_features=256, bias=True)\n    (3): ReLU()\n    (4): Linear(in_features=256,\
    \ out_features=256, bias=True)\n    (5): ReLU()\n    (6): Linear(in_features=256,\
    \ out_features=128, bias=True)\n    (7): ReLU()\n    (8): Linear(in_features=128,\
    \ out_features=1, bias=True)\n  )\n  (qf1): Sequential(\n    (0): Linear(in_features=79,\
    \ out_features=128, bias=True)\n    (1): ReLU()\n    (2): Linear(in_features=128,\
    \ out_features=256, bias=True)\n    (3): ReLU()\n    (4): Linear(in_features=256,\
    \ out_features=256, bias=True)\n    (5): ReLU()\n    (6): Linear(in_features=256,\
    \ out_features=128, bias=True)\n    (7): ReLU()\n    (8): Linear(in_features=128,\
    \ out_features=1, bias=True)\n  )\n)"
critic_target:
  desc: null
  value: "ContinuousCritic(\n  (features_extractor): FlattenExtractor(\n    (flatten):\
    \ Flatten(start_dim=1, end_dim=-1)\n  )\n  (qf0): Sequential(\n    (0): Linear(in_features=79,\
    \ out_features=128, bias=True)\n    (1): ReLU()\n    (2): Linear(in_features=128,\
    \ out_features=256, bias=True)\n    (3): ReLU()\n    (4): Linear(in_features=256,\
    \ out_features=256, bias=True)\n    (5): ReLU()\n    (6): Linear(in_features=256,\
    \ out_features=128, bias=True)\n    (7): ReLU()\n    (8): Linear(in_features=128,\
    \ out_features=1, bias=True)\n  )\n  (qf1): Sequential(\n    (0): Linear(in_features=79,\
    \ out_features=128, bias=True)\n    (1): ReLU()\n    (2): Linear(in_features=128,\
    \ out_features=256, bias=True)\n    (3): ReLU()\n    (4): Linear(in_features=256,\
    \ out_features=256, bias=True)\n    (5): ReLU()\n    (6): Linear(in_features=256,\
    \ out_features=128, bias=True)\n    (7): ReLU()\n    (8): Linear(in_features=128,\
    \ out_features=1, bias=True)\n  )\n)"
device:
  desc: null
  value: cpu
ent_coef:
  desc: null
  value: auto
ent_coef_optimizer:
  desc: null
  value: "Adam (\nParameter Group 0\n    amsgrad: False\n    betas: (0.9, 0.999)\n\
    \    capturable: False\n    differentiable: False\n    eps: 1e-08\n    foreach:\
    \ None\n    fused: False\n    lr: 0.0003\n    maximize: False\n    weight_decay:\
…
    \ -inf -inf -inf -inf -inf -inf -inf -inf -inf -inf -inf -inf -inf\n -inf -inf\
    \ -inf], [inf inf inf inf inf inf inf inf inf inf inf inf inf inf inf inf inf\
    \ inf\n inf inf inf inf inf inf inf inf inf inf inf inf inf inf inf inf inf inf\n\
    \ inf inf inf inf inf inf inf inf inf], (45,), float32)"
optimize_memory_usage:
  desc: null
  value: 'False'
pi_net_arch:
  desc: null
  value:
  - 128
  - 256
  - 256
  - 128
policy:
  desc: null
  value: "SACPolicy(\n  (actor): Actor(\n    (features_extractor): FlattenExtractor(\n\
    \      (flatten): Flatten(start_dim=1, end_dim=-1)\n    )\n    (latent_pi): Sequential(\n\
    \      (0): Linear(in_features=45, out_features=128, bias=True)\n      (1): ReLU()\n\
    \      (2): Linear(in_features=128, out_features=256, bias=True)\n      (3): ReLU()\n\
    \      (4): Linear(in_features=256, out_features=256, bias=True)\n      (5): ReLU()\n\
    \      (6): Linear(in_features=256, out_features=128, bias=True)\n      (7): ReLU()\n\
    \    )\n    (mu): Linear(in_features=128, out_features=34, bias=True)\n    (log_std):\
    \ Linear(in_features=128, out_features=34, bias=True)\n  )\n  (critic): ContinuousCritic(\n\
    \    (features_extractor): FlattenExtractor(\n      (flatten): Flatten(start_dim=1,\
    \ end_dim=-1)\n    )\n    (qf0): Sequential(\n      (0): Linear(in_features=79,\
    \ out_features=128, bias=True)\n      (1): ReLU()\n      (2): Linear(in_features=128,\
    \ out_features=256, bias=True)\n      (3): ReLU()\n      (4): Linear(in_features=256,\
    \ out_features=256, bias=True)\n      (5): ReLU()\n      (6): Linear(in_features=256,\
    \ out_features=128, bias=True)\n      (7): ReLU()\n      (8): Linear(in_features=128,\
    \ out_features=1, bias=True)\n    )\n    (qf1): Sequential(\n      (0): Linear(in_features=79,\
    \ out_features=128, bias=True)\n      (1): ReLU()\n      (2): Linear(in_features=128,\
    \ out_features=256, bias=True)\n      (3): ReLU()\n      (4): Linear(in_features=256,\
    \ out_features=256, bias=True)\n      (5): ReLU()\n      (6): Linear(in_features=256,\
    \ out_features=128, bias=True)\n      (7): ReLU()\n      (8): Linear(in_features=128,\
    \ out_features=1, bias=True)\n    )\n  )\n  (critic_target): ContinuousCritic(\n\
    \    (features_extractor): FlattenExtractor(\n      (flatten): Flatten(start_dim=1,\
    \ end_dim=-1)\n    )\n    (qf0): Sequential(\n      (0): Linear(in_features=79,\
    \ out_features=128, bias=True)\n      (1): ReLU()\n      (2): Linear(in_features=128,\
    \ out_features=256, bias=True)\n      (3): ReLU()\n      (4): Linear(in_features=256,\
    \ out_features=256, bias=True)\n      (5): ReLU()\n      (6): Linear(in_features=256,\
    \ out_features=128, bias=True)\n      (7): ReLU()\n      (8): Linear(in_features=128,\
    \ out_features=1, bias=True)\n    )\n    (qf1): Sequential(\n      (0): Linear(in_features=79,\
    \ out_features=128, bias=True)\n      (1): ReLU()\n      (2): Linear(in_features=128,\
    \ out_features=256, bias=True)\n      (3): ReLU()\n      (4): Linear(in_features=256,\
    \ out_features=256, bias=True)\n      (5): ReLU()\n      (6): Linear(in_features=256,\
    \ out_features=128, bias=True)\n      (7): ReLU()\n      (8): Linear(in_features=128,\
    \ out_features=1, bias=True)\n    )\n  )\n)"
policy_class:
  desc: null
  value: <class 'stable_baselines3.sac.policies.SACPolicy'>
policy_kwargs:
  desc: null
  value: '{''net_arch'': {''pi'': [128, 256, 256, 128], ''qf'': [128, 256, 256, 128]},
    ''use_sde'': False}'
qf_net_arch:
  desc: null
  value:
  - 128
  - 256
  - 256
  - 128
replay_buffer:
  desc: null
  value: <stable_baselines3.common.buffers.ReplayBuffer object at 0x7f42d3c27c10>
…
